test/custom_ops/boxes_overlap_bev_data/boxes_overlap_b_2.npy (npy, 1416 bytes, 1 tensors)

array f4 [46, 7]
-11.970224 1.3914218 -1.0112265 0.647 0.621 1.778 -1.5883756 6.4172955
-16.142544 -1.1890433 0.944 0.688 1.904 -1.5579485 9.41772 -18.671383
-1.5393226 0.341 0.394 1.322 -1.0586445 -17.423077 1.2648729 -1.0204684
0.415 0.447 1.725 -0.96064156 -9.321847 -21.73211 -1.9523433 0.613
0.578 1.752 -1.3398447 28.055817 7.0780206 -0.002979069 0.446 0.551
1.715 2.5331206 6.746726 -4.343192 -0.85899067 1.03 0.751 1.975
-1.4908855 6.783404 5.49221 -0.55669165 0.695 0.62 1.59 -1.7053407
-20.184933 3.3593814 -1.2723818 0.331 0.345 1.326 2.7014112 2.0798209
40.697857 1.7041185 4.734 2.001 1.481 1.5359643 7.0398517 -24.51534
-1.4719284 0.61 0.631 1.929 1.5012645 -11.76628 26.508953 0.26600274
0.519 0.522 1.348 1.5366992 -10.321092 -16.903147 -1.6857257 0.498
0.697 1.761 -1.698463 -8.214144 37.22123 1.3004693 5.03 1.953
1.672 0.2714898 8.113972 3.9367757 -0.6448662 0.736 0.665 1.89
1.4929698 1.0551382 -22.966024 -1.716279 4.488 1.871 1.515 1.7297766
-19.773815 2.982727 -1.1035016 0.369 0.496 1.656 2.7492685 -21.888515
9.674916 -0.48827344 0.405 0.615 1.717 -0.6519366 7.6184273 5.893823
-0.5030302 0.439 0.546 1.622 -1.600729 -14.3020115 35.92812 0.90860456
4.329 1.796 1.703 0.1515901 -19.613575 3.7716348 -1.0206659 0.395
0.64 1.807 -2.86301 -8.226327 -0.11841925 -0.9627524 0.736 0.612
1.877 0.040408824 -3.389607 13.073649 -0.3725256 4.495 1.803 1.56
-1.6298463 -30.030289 6.401152 -0.7591351 0.836 0.729 1.817 2.6227217
-7.080031 21.096092 0.047864925 4.832 1.928 1.525 -1.6123477 6.723705
33.48096 0.9604623 0.305 0.295 0.765 1.5790951 -19.731993 -7.133179
-1.726688 0.594 0.584 1.917 -1.5147877 -12.369799 26.692026 0.54224586
0.681 0.585 1.711 1.5240129 6.9720793 2.425762 -0.8059636 0.815
0.694 1.794 -1.6892577 6.945168 8.004821 -0.51736623 0.587 0.547
1.59 -1.7111744 7.2998796 67.76475 3.8957691 3.484 1.604 1.58
1.5023669 22.394583 2.7914402 -0.6058927 4.187 1.683 1.675 -0.014219518
8.042888 -24.25962 -1.4431665 0.601 0.712 1.891 1.649984 -3.6398213
-13.335081 -1.3259373 4.927 1.998 1.792 -1.4663671 5.108762 36.313446
1.3822618 4.76 1.889 1.531 1.5754908 7.8732114 7.3248324 -0.40722254
0.674 0.538 1.794 -1.7591914 31.959305 2.204571 0.04696406 5.212
00000000: 0a86 3fc1 1c1a b23f df6f 81bf cba1 253f
00000010: dbf9 1e3f 8195 e33f e44f cbbf 7c5a cd40
00000020: ee23 81c1 9232 98bf fca9 713f c520 303f
00000030: 46b6 f33f db6a c7bf fbae 1641 fe5e 95c1
00000040: 8608 c5bf 8d97 ae3e 5eba c93e 4c37 a93f
00000050: aa81 87bf 7662 8bc1 5be7 a13f b59e 82bf
00000060: e17a d43e 2fdd e43e cdcc dc3f 9bec 75bf
00000070: 4926 15c1 5cdb adc1 63e6 f9bf 91ed 1c3f
00000080: cff7 133f 8941 e03f 0880 abbf 5072 e041
00000090: 257f e240 7c3c 43bb 1d5a e43e 560e 0d3f
000000a0: 1f85 db3f a61e 2240 2ee5 d740 6efb 8ac0
000000b0: d0e6 5bbf 0ad7 833f 8941 403f cdcc fc3f
000000c0: 56d5 bebf a511 d940 2fc0 af40 5883 0ebf
000000d0: 85eb 313f 52b8 1e3f 1f85 cb3f 9b48 dabf
000000e0: be7a a1c1 1b00 5740 68dd a2bf d578 a93e
000000f0: d7a3 b03e 5eba a93f ece3 2c40 c91b 0540
00000100: 9bca 2242 8e20 da3f ee7c 9740 6210 0040
00000110: 6891 bd3f 7a9a c43f 7746 e140 6b1f c4c1
00000120: 2668 bcbf f628 1c3f 3789 213f 79e9 f63f
00000130: 6f29 c03f af42 3cc1 5612 d441 8331 883e
00000140: 2fdd 043f cba1 053f 448b ac3f 8fb2 c43f
00000150: 3123 25c1 a539 87c1 dcc5 d7bf dbf9 fe3e
00000160: 986e 323f 7368 e13f 3c67 d9bf 226d 03c1
00000170: 8ae2 1442 c775 a63f c3f5 a040 e7fb f93f
00000180: 1904 d63f b600 8b3e d4d2 0141 22f4 7b40
00000190: f415 25bf 7f6a 3c3f 713d 2a3f 85eb f13f
000001a0: a219 bf3f c50e 873f 6bba b7c1 08af dbbf
000001b0: b29d 8f40 ee7c ef3f 85eb c13f 5269 dd3f
000001c0: c630 9ec1 00e5 3e40 8a3f 8dbf 91ed bc3e
000001d0: b6f3 fd3e cff7 d33f 04f4 2f40 ae1b afc1
000001e0: 75cc 1a41 fafe f9be 295c cf3e a470 1d3f
000001f0: a8c6 db3f 51e5 26bf 28ca f340 339a bc40
00000200: 96c6 00bf 9cc4 e03e a8c6 0b3f b29d cf3f
00000210: b0e4 ccbf 0ad5 64c1 65b6 0f42 4f9a 683f
00000220: 2b87 8a40 54e3 e53f e7fb d93f 6f3a 1b3e
00000230: 9ae8 9cc1 7762 7140 2ea5 82bf 713d ca3e
00000240: 0ad7 233f c74b e73f 8e3b 37c0 099f 03c1
00000250: cb85 f2bd f176 76bf 7f6a 3c3f 08ac 1c3f
00000260: 8941 f03f b983 253d 52ef 58c0 ab2d 5141
00000270: adbb bebe 0ad7 8f40 b4c8 e63f 14ae c73f
00000280: ce9e d0bf 083e f0c1 3dd6 cc40 ae56 42bf
00000290: 1904 563f be9f 3a3f 7593 e83f acda 2740
000002a0: 9d8f e2c0 ccc4 a841 030e 443d be9f 9a40
000002b0: b4c8 f63f 3333 c33f 6961 cebf 9728 d740
000002c0: 81ec 0542 dbe0 753f f628 9c3e 3d0a 973e
000002d0: 0ad7 433f ca1f ca3f 1fdb 9dc1 0143 e4c0
000002e0: 1d04 ddbf 6210 183f 0681 153f 4260 f53f
000002f0: 90e4 c1bf b2ea 45c1 4589 d541 a0d0 0a3f
00000300: 0456 2e3f 8fc2 153f 0c02 db3f db12 c33f
00000310: 461b df40 af3f 1b40 a153 4ebf d7a3 503f
00000320: fca9 313f cba1 e53f 9939 d8bf d13e de40
00000330: bf13 0041 1d72 04bf a245 163f 3108 0c3f
00000340: 1f85 cb3f c307 dbbf 9d98 e940 8d87 8742
00000350: 4854 7940 dbf9 5e40 df4f cd3f 713d ca3f
00000360: 8f4d c03f 1b28 b341 f5a6 3240 c91b 1bbf
00000370: e7fb 8540 8b6c d73f 6666 d63f fbf8 68bc
00000380: abaf 0041 b413 c2c1 aeb9 b8bf 23db 193f
00000390: a245 363f 4a0c f23f ad32 d33f d5f2 68c0
000003a0: 7e5c 55c1 50b8 a9bf fca9 9d40 77be ff3f
000003b0: 4260 e53f ebb1 bbbf fa7a a340 f840 1142
000003c0: f4ed b03f ec51 9840 c1ca f13f cff7 c33f
000003d0: afa9 c93f 59f1 fb40 0765 ea40 797f d0be
000003e0: 448b 2c3f 5eba 093f cba1 e53f 2f2d e1bf
000003f0: a8ac ff41 b117 0d40 635d 403d b4c8 a640
