test/custom_ops/boxes_overlap_bev_data/boxes_overlap_b_4.npy (npy, 1080 bytes, 1 tensors)

array f4 [34, 7]
00000000: 8635 27c1 05ac af41 3bf1 32be cba1 253f
00000010: dbf9 1e3f 8195 e33f f163 d8bf 810a c440
00000020: 3307 4c40 ef6a 2cbf fca9 713f c520 303f
00000030: 46b6 f33f 02bc d6bf 0c18 0941 216c 10c0
00000040: 5460 9abf 8d97 ae3e 5eba c93e 4c37 a93f
00000050: f486 94bf 0e8b 2dc1 91cf 20bf 9e0d 97bf
00000060: 91ed 1c3f cff7 133f 8941 e03f 8413 b4bf
00000070: 41ef 2bc2 4029 ab3f 47eb 0fc0 a470 8d3f
00000080: 39b4 683f 0000 0040 29fa 43c0 4b71 3141
00000090: 2b1b 01c0 73db adbf c1ca 013f 4c37 c93e
000000a0: 3333 933f 3763 d9bd 4a83 f940 46cb 7341
000000b0: 6c63 81be 0ad7 833f 8941 403f cdcc fc3f
000000c0: abf9 d8bf 5924 0d41 348f bc41 2cbe 6c3e
000000d0: 85eb 313f 52b8 1e3f 1f85 cb3f 91d9 ebbf
000000e0: 5853 a740 b724 2142 9186 963f ee7c 9740
000000f0: 6210 0040 6891 bd3f 7748 b53f 5667 b540
00000100: f679 25c1 ce8f aebf f628 1c3f 3789 213f
00000110: 79e9 f63f ccc4 de3f 461b 03c1 2621 2a42
00000120: 15d0 8a3f 2fdd 043f cba1 053f 448b ac3f
00000130: 3a9e b73f 9c63 25c1 ac98 7540 4185 6bbf
00000140: dbf9 fe3e 986e 323f 7368 e13f 0a99 cbbf
00000150: bb8c 1041 d436 8b41 ea32 55be 7f6a 3c3f
00000160: 713d 2a3f 85eb f13f 77dc b93f 4ffc 7b3f
00000170: 23ec 9ac1 3c8c 08c0 b29d 8f40 ee7c ef3f
00000180: 85eb c13f 1528 d43f 9382 93c1 4504 ae41
00000190: c667 acbe 91ed bc3e b6f3 fd3e cff7 d33f
000001a0: 1479 2940 b146 1e41 de1c c041 40ca 393e
000001b0: 9cc4 e03e a8c6 0b3f b29d cf3f ceb3 fcbf
000001c0: 3d86 7641 8355 8abf f67c 9bbf 21b0 f23e
000001d0: aaf1 123f 0000 0040 2059 44c0 d5b7 8fc1
000001e0: ae23 b841 057d 70be 713d ca3e 0ad7 233f
000001f0: c74b e73f 38e9 30c0 f935 7441 38ea c0be
00000200: 394e 9cbf 5a64 fb3e 355e fa3e 91ed ec3f
00000210: 2059 44c0 7cce f1c0 fbb7 9141 97bd 50be
00000220: 7f6a 3c3f 08ac 1c3f 8941 f03f 091b efbe
00000230: 2aea e03f ee5b 4242 26a3 e93f 0ad7 8f40
00000240: b4c8 e63f 14ae c73f 88b3 ddbf ad0c 0cc1
00000250: deb9 2a42 1780 a13f 0456 2e3f 8fc2 153f
00000260: 0c02 db3f 72eb c73f 9b89 0b41 9d14 a541
00000270: e57f f3bd d7a3 503f fca9 313f cba1 e53f
00000280: 7264 efbf 2f05 e8c0 200d 29c2 8ed3 57c0
00000290: b6f3 8d3f b072 683f 0681 0d40 1404 c4bf
000002a0: 2c6f d740 2bdd 23c1 7d84 b0bf 23db 193f
000002b0: a245 363f 4a0c f23f d591 d33f 563b 44c2
000002c0: 998f 24bf 8fbd 1bc0 7b14 9e3f ae47 413f
000002d0: df4f 0540 7858 47c0 dc53 3ec0 4211 b941
000002e0: 6f4f bb3c fca9 9d40 77be ff3f 4260 e53f
000002f0: 8bf7 d3bf 7f2b d83e 8dbf 52c2 bb3f 76c0
00000300: f0a7 9e40 355e 0240 c1ca d13f b09c bcbf
00000310: eee2 3041 80ad c841 afde bb3e 448b 2c3f
00000320: 5eba 093f cba1 e53f 5053 23c0 73dc 5541
00000330: d49c 2e42 cedd e73f cff7 533f 1058 393f
00000340: 48e1 ea3f a1e1 b93f 97c1 7d41 c4bd 7342
00000350: 371c 4440 21b0 323f 295c 0f3f 643b df3f
00000360: be2e c03f 5671 69c1 1e84 6841 d62a 91bf
00000370: b072 483f 91ed 3c3f 5c8f c23f f49c 4840
00000380: 7e82 35c1 316a b141 ab55 8ebd 91ed 3c3f
00000390: aaf1 323f 9a99 f93f 71c0 dbbf a55a 1841
000003a0: eb5d 9a41 0f63 b9bd 0e2d 323f 2fdd 243f
000003b0: 08ac ec3f f8c6 af3f
-10.450567 21.958994 -0.17474835 0.647 0.621 1.778 -1.69055 6.126282
3.1879394 -0.6735067 0.944 0.688 1.904 -1.6776125 8.568371 -2.2565997
-1.2060647 0.341 0.394 1.322 -1.1603684 -10.846449 -0.6281672 -1.1801031
0.613 0.578 1.752 -1.4068456 -42.983646 1.3371964 -2.2487352 1.105
0.909 2.0 -3.0621436 11.090159 -2.0172832 -1.3582596 0.507 0.393
1.15 -0.10614627 7.7972765 15.237127 -0.25271165 1.03 0.751 1.975
-1.6951193 8.821374 23.569923 0.2311942 0.695 0.62 1.59 -1.8425771
5.228924 40.285854 1.1759816 4.734 2.001 1.481 1.416274 5.6688643
-10.342276 -1.3637636 0.61 0.631 1.929 1.7403808 -8.194159 42.53237
1.0844752 0.519 0.522 1.348 1.4345162 -10.336819 3.8374434 -0.92000204
0.498 0.697 1.761 -1.5906079 9.034358 17.401772 -0.20820203 0.736
0.665 1.89 1.4520406 0.9843187 -19.365301 -2.1335592 4.488 1.871
1.515 1.6574732 -18.438757 21.752085 -0.33672923 0.369 0.496 1.656
2.648015 9.892259 24.014095 0.18143559 0.439 0.546 1.622 -1.9742372
15.407773 -1.0807346 -1.214751 0.474 0.574 2.0 -3.0679398 -17.964762
23.017422 -0.23485191 0.395 0.64 1.807 -2.7642345 15.263177 -0.37678695
-1.2211372 0.491 0.489 1.851 -3.0679398 -7.5564556 18.214834 -0.20384823
0.736 0.612 1.877 -0.46700314 1.7571461 48.589775 1.8252914 4.495
1.803 1.56 -1.7320414 -8.753095 42.68151 1.2617215 0.681 0.585
1.711 1.5618727 8.721095 20.635065 -0.11889628 0.815 0.694 1.794
-1.8702528 -7.250633 -42.262817 -3.3722873 1.109 0.908 2.211 -1.5313745
6.732321 -10.241496 -1.3790432 0.601 0.712 1.891 1.652888 -49.057945
-0.6428161 -2.4334447 1.235 0.755 2.083 -3.1147747 -2.9738684 23.133427
0.022865025 4.927 1.998 1.792 -1.6559919 0.42220685 -52.68706 -3.8476398
4.958 2.037 1.639 -1.4735317 11.055403 25.084717 0.36693332 0.674
0.538 1.794 -2.55196 13.366321 43.653152 1.8114564 0.828 0.724
1.835 1.4521981 15.859763 60.935318 3.064222 0.698 0.56 1.744
1.5014265 -14.59017 14.532255 -1.1341197 0.783 0.738 1.52 3.1345797
-11.344358 22.176851 -0.069499336 0.738 0.699 1.95 -1.7168103 9.52213
19.295858 -0.09052097 0.696 0.644 1.849 1.3732595
