test/custom_ops/boxes_overlap_bev_data/boxes_overlap_b_5.npy (npy, 1080 bytes, 1 tensors)

array f4 [34, 7]
0	0xc130b6df	-11.044646
1	0x41875d83	16.92066
2	0xbdbf6e68	-0.0934723
3	0x3f25a1cb	0.647
4	0x3f1ef9db	0.621
5	0x3fe39581	1.778
6	0xbfd4f196	-1.6636226
7	0x40bf65b6	5.981166
8	0xbfbe92d9	-1.4888564
9	0xbf62665f	-0.88437456
10	0x3f71a9fc	0.944
11	0x3f3020c5	0.688
12	0x3ff3b646	1.904
13	0xbfd10abe	-1.6331403
14	0x410a80d2	8.65645
15	0xc0c6f49a	-6.2173586
16	0xbfb4a736	-1.4113529
17	0x3eae978d	0.341
18	0x3ec9ba5e	0.394
19	0x3fa9374c	1.322
20	0xbf9101ba	-1.1328652
21	0xc12a3157	-10.637046
22	0xc0b9c1ba	-5.8048983
23	0xbfbcd4c3	-1.475243
24	0x3f1ced91	0.613
25	0x3f13f7cf	0.578
26	0x3fe04189	1.752
27	0xbfad38f3	-1.3533005
28	0xc22ec915	-43.69637
29	0xc0851bbd	-4.159636
30	0xc020fa7d	-2.5152886
31	0x3f8d70a4	1.105
32	0x3f68b439	0.909
33	0x40000000	2.0
34	0xc0424326	-3.0353484
35	0x4132a63b	11.165584
36	0xc0bdee82	-5.9353647
37	0xbfc9ecea	-1.5775425
38	0x3f01cac1	0.507
39	0x3ec9374c	0.393
40	0x3f933333	1.15
41	0xbda20a2c	-0.079120964
42	0x40ea9a73	7.3313537
43	0x41273ebf	10.452819
44	0xbe94670f	-0.28984877
45	0x3f83d70a	1.03
46	0x3f404189	0.751
47	0x3ffccccd	1.975
48	0xbfe2fdb5	-1.7733675
49	0x4100ec56	8.057699
50	0x4199c477	19.22093
51	0x3e6a349e	0.22871634
52	0x3f31eb85	0.695
53	0x3f1eb852	0.62
54	0x3fcb851f	1.59
55	0xbfe86d45	-1.8158346
56	0x40949c47	4.644077
57	0x42239b4e	40.901665
58	0x40006a5c	2.0064917
59	0x40977cee	4.734
60	0x40001062	2.001
61	0x3fbd9168	1.481
62	0x3fbaf7c8	1.4606867
63	0x40bab47b	5.8345313
64	0xc15b2619	-13.696801
65	0xbfd6987a	-1.6765282
66	0x3f1c28f6	0.61
67	0x3f218937	0.631
68	0x3ff6e979	1.929
69	0x3fddc6b4	1.7326264
70	0xc127b331	-10.481248
71	0xbf97db70	-1.1863842
72	0xbf91bbc4	-1.1385427
73	0x3efef9db	0.498
74	0x3f326e98	0.697
75	0x3fe16873	1.761
76	0xbfdc53df	-1.7213095
77	0xc1b63891	-22.77762
78	0x411b7eaa	9.718424
79	0xbf959835	-1.1687075
80	0x3f4624dd	0.774
81	0x3f6fdf3b	0.937
82	0x3fa5e354	1.296
83	0xbe9e13d6	-0.3087451
84	0x4109f5f1	8.622544
85	0x4162e137	14.179984
86	0xbdc64e6d	-0.09682927
87	0x3f3c6a7f	0.736
88	0x3f2a3d71	0.665
89	0x3ff1eb85	1.89
90	0x3fb57489	1.4176189
91	0x3f8772e8	1.0581942
92	0xc19c4eb8	-19.538437
93	0xc016e374	-2.3576326
94	0x408f9db2	4.488
95	0x3fef7cee	1.871
96	0x3fc1eb85	1.515
97	0x3fd73000	1.6811523
98	0xc19774b3	-18.931982
99	0x41898214	17.188515
100	0xbe240768	-0.1601845
101	0x3ebced91	0.369
102	0x3efdf3b6	0.496
103	0x3fd3f7cf	1.656
104	0x4026c680	2.6058655
105	0x4111138d	9.067273
106	0x419d7f75	19.687235
107	0x3e8cae7b	0.27476868
108	0x3ee0c49c	0.439
109	0x3f0bc6a8	0.546
110	0x3fcf9db2	1.622
111	0xbfef34a5	-1.8687941
112	0xc12c51be	-10.769957
113	0x42478954	49.88411
114	0x402762a6	2.615396
115	0x408a872b	4.329
116	0x3fe5e354	1.796
117	0x3fd9fbe7	1.703
118	0x3d9dab5b	0.07698699
119	0xc19492b2	-18.571629
120	0x41928cc7	18.318739
121	0xbd3c5d44	-0.045987383
122	0x3eca3d71	0.395
123	0x3f23d70a	0.64
124	0x3fe74bc7	1.807
125	0xc02f372e	-2.737743
126	0xc1019865	-8.099706
127	0x415d1073	13.816516
128	0xbe5e9068	-0.21734774
129	0x3f3c6a7f	0.736
130	0x3f1cac08	0.612
131	0x3ff04189	1.877
132	0xbe96defb	-0.29466996
133	0xc1e6e476	-28.861553
134	0x41a5c52d	20.721277
135	0x3e2bd0fc	0.1677894
136	0x3f560419	0.836
137	0x3f3a9fbe	0.729
138	0x3fe89375	1.817
139	0x3fbb2808	1.4621592
140	0xc09af088	-4.8418617
141	0x420b55f7	34.83395
142	0x3fb05958	1.3777266
143	0x409a9fbe	4.832
144	0x3ff6c8b4	1.928
145	0x3fc33333	1.525
146	0xbfd8047d	-1.687637
147	0xc11e105a	-9.878992
148	0x421b1d98	38.7789
149	0x3fdf106d	1.7426888
150	0x3f2e5604	0.681
151	0x3f15c28f	0.585
152	0x3fdb020c	1.711
153	0x3fc3882d	1.5275933
154	0x410170e1	8.090058
155	0x4181e055	16.234537
156	0xbd299f04	-0.041411415
157	0x3f50a3d7	0.815
158	0x3f31a9fc	0.694
159	0x3fe5a1cb	1.794
160	0xbfeada0f	-1.8347796
161	0x410a9c3f	8.663146
162	0x41ae483f	21.785276
163	0x3ec0d84e	0.37665027
164	0x3f1645a2	0.587
165	0x3f0c0831	0.547
166	0x3fcb851f	1.59
167	0xbfef2803	-1.8684086
168	0x40dfc453	6.9927154
169	0xc1598d25	-13.596959
170	0xbfdbcc6e	-1.7171762
171	0x3f19db23	0.601
172	0x3f3645a2	0.712
173	0x3ff20c4a	1.891
174	0x3fd4ce3a	1.6625435
175	0xc0723325	-3.7843716
176	0x416450a0	14.269684
177	0xbe4e2575	-0.20131476
178	0x409da9fc	4.927
179	0x3fffbe77	1.998
180	0x3fe56042	1.792
181	0xbfd083c4	-1.6290212
182	0x4107e852	8.494219
183	0x4242e6dd	48.725452
184	0x4034b9c6	2.8238387
185	0x409851ec	4.76
186	0x3ff1cac1	1.889
187	0x3fc3f7cf	1.531
188	0x3fc0094f	1.5002841
189	0x41200015	10.00002
190	0x41a7c300	20.970215
191	0x3f042515	0.5161908
192	0x3f2c8b44	0.674
193	0x3f09ba5e	0.538
194	0x3fe5a1cb	1.794
195	0xc00a2813	-2.158696
196	0x414444bf	12.266784
197	0x4221be0e	40.4356
198	0x4014503c	2.317397
199	0x3f53f7cf	0.828
200	0x3f395810	0.724
201	0x3feae148	1.835
202	0x3fbd5408	1.4791269
203	0x41654a89	14.330697
204	0x42677ff1	57.874943
205	0x406fe3a1	3.7482684
206	0x3f32b021	0.698
207	0x3f0f5c29	0.56
208	0x3fdf3b64	1.744
209	0x3fc3a32c	1.5284171
210	0xc16fbae1	-14.983125
211	0x411e417a	9.8909855
212	0xbf8582bc	-1.0430522
213	0x3f4872b0	0.783
214	0x3f3ced91	0.738
215	0x3fc28f5c	1.52
216	0xc047ca02	-3.1217046
217	0x3f444dd9	0.76681286
218	0x42c2c890	97.39172
219	0x4100b32b	8.043742
220	0x40d0624e	6.512
221	0x40209375	2.509
222	0x40418937	3.024
223	0xbfdabb7d	-1.7088467
224	0xc13fee9b	-11.995753
225	0x4188c334	17.095314
226	0x3d612538	0.054967135
227	0x3f3ced91	0.738
228	0x3f32f1aa	0.699
229	0x3ff9999a	1.95
230	0xbfd4f196	-1.6636226
231	0x4112bbfc	9.170895
232	0x41801612	16.010777
233	0x3c0f4bfe	0.008746145
234	0x3f322d0e	0.696
235	0x3f24dd2f	0.644
236	0x3fecac08	1.849
237	0x3fb3362b	1.4000906
