test/custom_ops/boxes_overlap_bev_data/boxes_overlap_b_3.npy (npy, 912 bytes, 1 tensors)

array f4 [28, 7]
-9.63863 26.983177 -0.40300095 0.647 0.621 1.778 -1.7198496 6.43851
7.841558 -0.60856044 0.944 0.688 1.904 -1.724414 -10.86182 4.585979
-1.029229 0.613 0.578 1.752 -1.4626545 -42.546017 6.7955437 -2.186563
1.105 0.909 2.0 -3.091295 8.4636545 20.034172 -0.26309982 1.03
0.751 1.975 -1.6544622 9.7479315 27.889986 -0.009241698 0.695 0.62
1.59 -1.9066961 5.9306254 40.694405 0.51758343 4.734 2.001 1.481
1.421988 5.5881205 -6.9952626 -1.154249 0.61 0.631 1.929 1.7457461
-10.101825 8.887174 -0.8433805 0.498 0.697 1.761 -1.4626545 9.612737
20.582045 -0.42650315 0.736 0.665 1.89 1.4839478 0.7390593 -19.453646
-1.8791091 4.488 1.871 1.515 1.6139725 10.943831 28.264261 -0.055532865
0.439 0.546 1.622 -2.081937 -17.199547 27.71709 -0.5535467 0.395
0.64 1.807 -2.7931368 15.965859 3.3712502 -1.262276 0.491 0.489
1.851 -3.1232302 -7.0355897 22.701944 -0.2893952 0.736 0.612 1.877
-0.64191234 -2.5606215 43.720535 0.70608896 4.832 1.928 1.525 -1.7438087
-7.3602176 46.530357 0.81316894 0.681 0.585 1.711 1.6286238 9.572544
25.126833 -0.20655775 0.815 0.694 1.794 -1.8294156 -8.346814 -37.12192
-2.624064 1.109 0.908 2.211 -1.5608406 6.560427 -6.9283924 -1.1225593
0.601 0.712 1.891 1.6321206 -47.908726 4.7773943 -2.1871371 1.235
0.755 2.083 3.139206 -1.4214369 -42.843826 -2.719387 4.958 2.037
1.639 -1.4855732 12.306083 29.131962 0.030371841 0.674 0.538 1.794
-2.598224 14.649422 46.79511 1.2635496 0.828 0.724 1.835 1.4228973
-14.044479 19.162659 -1.2912153 0.783 0.738 1.52 3.10534 6.5817738
105.79319 5.360551 6.512 2.509 3.024 -1.76497 -10.456394 27.253162
-0.3394502 0.738 0.699 1.95 -1.7723151 10.001989 22.54708 -0.30090085
0.696 0.644 1.849 1.3440413
00000000: d437 1ac1 8cdd d741 2456 cebe cba1 253f
00000010: dbf9 1e3f 8195 e33f 0824 dcbf 4608 ce40
00000020: 0bee fa40 9eca 1bbf fca9 713f c520 303f
00000030: 46b6 f33f 99b9 dcbf 04ca 2dc1 57c0 9240
00000040: c7bd 83bf 91ed 1c3f cff7 133f 8941 e03f
00000050: 4338 bbbf 1f2f 2ac2 1875 d940 a6f0 0bc0
00000060: a470 8d3f 39b4 683f 0000 0040 c7d7 45c0
00000070: 216b 0741 fc45 a041 05b5 86be 0ad7 833f
00000080: 8941 403f cdcc fc3f 6bc5 d3bf 87f7 1b41
00000090: b11e df41 7e6a 17bc 85eb 313f 52b8 1e3f
000000a0: 1f85 cb3f 9e0e f4bf afc7 bd40 12c7 2242
000000b0: 5980 043f ee7c 9740 6210 0040 6891 bd3f
000000c0: b403 b63f e2d1 b240 31d9 dfc0 6ebe 93bf
000000d0: f628 1c3f 3789 213f 79e9 f63f 9c74 df3f
000000e0: 13a1 21c1 dd31 0e41 c9e7 57bf dbf9 fe3e
000000f0: 986e 323f 7368 e13f 4338 bbbf c5cd 1941
00000100: 07a8 a441 9f5e dabe 7f6a 3c3f 713d 2a3f
00000110: 85eb f13f 00f2 bd3f fe32 3d3f 11a1 9bc1
00000120: a686 f0bf b29d 8f40 ee7c ef3f 85eb c13f
00000130: a796 ce3f ef19 2f41 351d e241 6e76 63bd
00000140: 9cc4 e03e a8c6 0b3f b29d cf3f 753e 05c0
00000150: ac98 89c1 9abc dd41 3db5 0dbf 713d ca3e
00000160: 0ad7 233f c74b e73f c1c2 32c0 2974 7f41
00000170: 90c2 5740 4392 a1bf 5a64 fb3e 355e fa3e
00000180: 91ed ec3f 01e3 47c0 8d23 e1c0 959d b541
00000190: 9c2b 94be 7f6a 3c3f 08ac 1c3f 8941 f03f
000001a0: 5e54 24bf 39e1 23c0 d4e1 2e42 3fc2 343f
000001b0: be9f 9a40 b4c8 f63f 3333 c33f 2035 dfbf
000001c0: e786 ebc0 161f 3a42 d72b 503f 0456 2e3f
000001d0: 8fc2 153f 0c02 db3f bf76 d03f 2429 1941
000001e0: c103 c941 e083 53be d7a3 503f fca9 313f
000001f0: cba1 e53f 4a2a eabf 8d8c 05c1 d97c 14c2
00000200: aaf0 27c0 b6f3 8d3f b072 683f 0681 0d40
00000210: a0c9 c7bf 05ef d140 64b5 ddc0 06b0 8fbf
00000220: 23db 193f a245 363f 4a0c f23f 54e9 d03f
00000230: 89a2 3fc2 6ae0 9840 0efa 0bc0 7b14 9e3f
00000240: ae47 413f df4f 0540 c0e8 4840 a5f1 b5bf
00000250: 1460 2bc2 700a 2ec0 f0a7 9e40 355e 0240
00000260: c1ca d13f 4327 bebf b7e5 4441 420e e941
00000270: 5ece f83c 448b 2c3f 5eba 093f cba1 e53f
00000280: 4d49 26c0 0864 6a41 312e 3b42 febb a13f
00000290: cff7 533f 1058 393f 48e1 ea3f 8021 b63f
000002a0: 30b6 60c1 204d 9941 8b46 a5bf b072 483f
000002b0: 91ed 3c3f 5c8f c23f e4bd 4640 e49d d240
000002c0: 1d96 d342 a289 ab40 4e62 d040 7593 2040
000002d0: 3789 4140 89ea e1bf 644d 27c1 7a06 da41
000002e0: 6bcc adbe 91ed 3c3f aaf1 323f 9a99 f93f
000002f0: 39db e2bf 2608 2041 6b60 b441 ad0f 9abe
00000300: 0e2d 323f 2fdd 243f 08ac ec3f 8c09 ac3f
