test/custom_ops/boxes_overlap_bev_data/boxes_overlap_b_1.npy (npy, 772 bytes, 1 tensors)

array f4 [23, 7]
00000000: 23df fec0 b99b 1342 cf11 5b3e cba1 253f
00000010: dbf9 1e3f 8195 e33f 103c e4bf 1b79 ec40
00000020: 19b1 8b41 c734 38be fca9 713f c520 303f
00000030: 46b6 f33f a90e e7bf 0cf2 25c1 27c5 6e41
00000040: dde2 0abf 91ed 1c3f cff7 133f 8941 e03f
00000050: 124f c3bf 01b1 21c2 66e3 8841 cc7d 98bf
00000060: a470 8d3f 39b4 683f 0000 0040 64bb 48c0
00000070: 8e08 1e41 0f90 ee41 7942 e23d 0ad7 833f
00000080: 8941 403f cdcc fc3f 7b1a debf 63bf d340
00000090: 27dd 2b42 d899 1b3f ee7c 9740 6210 0040
000000a0: 6891 bd3f e689 973f beee b640 ac8e 04be
000000b0: 069f 43bf f628 1c3f 3789 213f 79e9 f63f
000000c0: 72d8 db3f a99f 16c1 99f2 9841 c6cd b9be
000000d0: dbf9 fe3e 986e 323f 7368 e13f 1dc9 c7bf
000000e0: 1840 2a41 2cd8 d841 b6b9 003d 7f6a 3c3f
000000f0: 713d 2a3f 85eb f13f 0d17 b83f ef66 323e
00000100: f802 9ec1 36f6 e6bf b29d 8f40 ee7c ef3f
00000110: 85eb c13f f16b cb3f 0f50 5041 5078 1342
00000120: d5f7 523e 9cc4 e03e a8c6 0b3f b29d cf3f
00000130: f4c1 0dc0 75e9 7ac1 dda9 1342 13eb e23d
00000140: 713d ca3e 0ad7 233f c74b e73f 3ca8 35c0
00000150: 15c9 8c41 c494 3041 b4aa 45bf 5a64 fb3e
00000160: 355e fa3e 91ed ec3f 1fad 4540 bb1c c1c0
00000170: ff02 ff41 fbb6 603e 7f6a 3c3f 08ac 1c3f
00000180: 8941 f03f bb86 22bf 7e91 0841 d8e5 9142
00000190: 6bcd 1a40 0ad7 8f40 b4c8 e63f 14ae c73f
000001a0: 1610 e5bf 1b2e 9bc0 c85f 5842 a1e4 a03f
000001b0: 0456 2e3f 8fc2 153f 0c02 db3f 0b72 d23f
000001c0: 2116 1ec1 55c6 d5c1 eff4 06c0 b6f3 8d3f
000001d0: b072 683f 0681 0d40 31a4 cdbf ff58 d040
000001e0: 4299 efbd e73b 4bbf 23db 193f a245 363f
000001f0: 4a0c f23f a02d cc3f aa08 39c2 7184 7841
00000200: d7f7 aebf 7b14 9e3f ae47 413f df4f 0540
00000210: 4e05 4640 4d10 53c0 cafb b7c1 6cd5 f5bf
00000220: f0a7 9e40 355e 0240 c1ca d13f 5db8 cabf
00000230: 5d3f 8641 95ee 5442 241a c43f cff7 533f
00000240: 1058 393f 48e1 ea3f 8346 b03f 23b3 4bc1
00000250: ccd8 e141 6f7f 17bf b072 483f 91ed 3c3f
00000260: 5c8f c23f 86da 4340 ae62 0ac1 2904 1542
00000270: 4e65 e93e 91ed 3c3f aaf1 323f 9a99 f93f
00000280: 20b6 e8bf
-7.9647384 36.902073 0.21393512 0.647 0.621 1.778 -1.783083 7.3897834
17.461473 -0.17988883 0.944 0.688 1.904 -1.8051349 -10.371593 14.923133
-0.54252416 0.613 0.578 1.752 -1.5258505 -40.422855 17.111034 -1.191339
1.105 0.909 2.0 -3.1364374 9.877089 29.820341 0.11047835 1.03
0.751 1.975 -1.7351831 6.6171126 42.96597 0.6078162 4.734 2.001
1.481 1.1838958 5.7166433 -0.1294505 -0.76414526 0.61 0.631 1.929
1.7175429 -9.41398 19.118456 -0.36289805 0.498 0.697 1.761 -1.560825
10.640648 27.105553 0.031427108 0.736 0.665 1.89 1.4382035 0.17422079
-19.75145 -1.8043888 4.488 1.871 1.515 1.5892316 13.019546 36.867493
0.20602353 0.439 0.546 1.622 -2.214963 -15.681996 36.915882 0.11079993
0.395 0.64 1.807 -2.8383932 17.598185 11.03632 -0.772136 0.491
0.489 1.851 3.0886915 -6.034757 31.876463 0.21944802 0.736 0.612
1.877 -0.6348683 8.535521 72.94891 2.4187877 4.495 1.803 1.56
-1.7895534 -4.849378 54.093536 1.2569772 0.681 0.585 1.711 1.6441053
-9.880403 -26.721842 -2.1086996 1.109 0.908 2.211 -1.6065732 6.510864
-0.116991535 -0.7938828 0.601 0.712 1.891 1.5951424 -46.25846 15.532334
-1.3669385 1.235 0.755 2.083 3.0940738 -3.29787 -22.997944 -1.9205756
4.958 2.037 1.639 -1.5837513 16.78094 53.23299 1.5320477 0.828
0.724 1.835 1.3771518 -12.731235 28.230858 -0.59178823 0.783 0.738
1.52 3.0602126 -8.649092 37.254063 0.45585102 0.738 0.699 1.95
-1.818058
